pa3/weights/lenet-mnist.pt (torch, 334883 bytes, 18 tensors)

conv1.0.weight f4 [6, 1, 3, 3]
00000000: 5ad5 433e 9f7f 53be 8f7d 053a 0ccf fa3d
00000010: 4059 d0be 430b 493e 733e cdbd b7ac cb3d
00000020: 617b 9a3d 28bc 33bc acc2 e03d b4e0 fa3d
00000030: 012c fb3d 114d 4bbe 02f0 0abe 3801 76bb
00000040: b376 a33d 5872 7a3d 9e41 a23e 33ac e73d
00000050: 8a9b 11be 42dd 5abe 9ff4 e2be c52f 43be
00000060: 0629 2ebe b4bc 48bc 1595 813e 26b1 8e3e
00000070: cdcd 9dbd 0e8b 1c3e 26a2 c53c 8165 d93e
00000080: 026a 973e ec30 ecbe 67aa d8be d9a7 40be
00000090: b84a 393e 83b8 9fbc 0e56 293e 4834 3ebd
000000a0: 2e7c d13e 69d9 62be 55da 573e 8493 af3d
000000b0: b53d 50be b579 ca3d 111e 9ebe 5662 533e
000000c0: 4d7a b2bd fc23 35be bc2d b1be e54e edbd
000000d0: 87ab c73d f222 d4bd
0.19124356 -0.20654152 0.0005092257 0.12246522 -0.40693092 0.19633202 -0.10021677 0.09945052
0.07543064 -0.010970153 0.10974631 0.1224989 0.122642525 -0.19853617 -0.13568118 -0.0037537348
0.079816245 0.061144203 0.31690687 0.11312141 -0.1421949 -0.21373466 -0.44327256 -0.19061191
-0.17007837 -0.012252022 0.25309053 0.2786953 -0.07705269 0.1528742 0.02412517 0.42460254
0.29573065 -0.46131074 -0.42317507 -0.18814029 0.18094909 -0.019497162 0.16536734 -0.046436578
0.40915054 -0.22153248 0.21079381 0.08573058 -0.2033604 0.09886495 -0.30882314 0.20642981
-0.08714733 -0.17689508 -0.34605205 -0.115873136 0.09749513 -0.10358228

conv1.0.bias f4 [6]
00000000: 27af 4c3e bfd1 fe3d 52f9 4f3d dfc3 18be
00000010: 918b b73d 7dcb b13d
0.1998869 0.1244235 0.05077488 -0.14918469 0.08962167 0.086813904

conv2.0.weight f4 [16, 6, 3, 3]
00000000: f501 07be ed53 2a3d 0e82 0d3e e6af 2f3e
00000010: ea9f 1ebd 6e6a 983c 19c5 3e3d b153 533d
00000020: 0953 9a3d cbec 9dbd 4614 733d a588 c4bc
00000030: 6f07 da3d bd09 cfbc 197c 163c 0a90 93bc
00000040: 2dcd 943c d497 d63c af79 86be b159 39be
00000050: ede1 55bd 799d e3bd a8db 92be 3de1 13be
00000060: aa22 b63d 39c8 a1be eed1 1ebe ce15 683a
00000070: 08cc 0abe 1a1a 633d 686e 65ba 776d 54be
00000080: e472 c7bd 92f2 0dbd d4ac 01be ee6b b4bd
00000090: 6c8a 9e3d 8548 ac3d 56e0 f2bc c7ca 89bd
000000a0: 22ca 823e 90eb cf3c b07f 9cbc 88cf 183e
000000b0: 5cbc 90bd 7dd7 cebd 2542 fc39 6658 1e3c
000000c0: 7eca d93d 3b7a e7bd ba3f a33c 36e2 9e3d
000000d0: 6802 8f3d 8c44 8bba ebf2 b1bb c146 0b3e
000000e0: 589a dc3d 84c3 9b3d 7f0c adbd dacd e7bd
000000f0: 0c30 9cbd 95d5 303c 8505 f13d e3e7 ccbd
00000100: 4e12 943d f563 9bbd 1fa3 0abe 34cd 0fbd
00000110: 3fa0 9a3d 9010 da3d e13e babd 60d5 013c
00000120: 0f48 b63d 15f6 bc3d 0124 933d 2b9a e53d
00000130: 83f1 b23d 9853 cf3c 96b3 bcbd e24f 00be
00000140: 7487 a2bd ddfd 26bc 6286 fabd acb4 3b3d
00000150: 32df 793d 8961 56bd 1e2a cf3c ab75 3f3c
00000160: d8f4 cc3d 527c 0e3e 99b8 2dbd 123c 253e
00000170: 7b8d deba 60ec 84bb b6ea eebd f33c 98bd
00000180: e688 00be 9404 8fbd 9e43 cd3d fc80 4dbd
00000190: e16d f2bd 1655 3d3d bf1f 573d 8636 973d
000001a0: 9918 9abd 415e 093d 18d8 52bd 9c40 30bd
000001b0: e2da edbc cc5f fbbd b767 d33d 223e 183e
000001c0: d6d6 a93e 1a0f f03b 6899 9a3e 5db2 103e
000001d0: 9790 cb3e 9f3a bf3d 911c 19bc e04b 013e
000001e0: caf7 38bd f189 ffbd 37d1 e7bd e77b b9bd
000001f0: 4466 5a3b 0a9e 3b3e 78f9 52be 6d68 09be
00000200: e7da 9dbd cb42 9ebc 83c5 493d ab65 2abe
00000210: c6ce d23c 2772 e4bb dafc a03e b35c 9abd
00000220: 6040 523e 7c78 b83c 2ee5 ab3b 8ad6 43be
00000230: 0fa0 98bc ab6f 34be b8f9 c2bb 0c7b 8ebd
00000240: cdbe 0c3e 5f08 58bd 4f3d 6bbd 3b86 4bbd
00000250: d6cf 663d dbd9 1a3e e5a7 ae3d 7e49 8a3d
00000260: 0c53 f8bd a61f 6f3e 2dd5 df3d 541d 8e3d
00000270: 5585 d93d f1a5 44be 2045 46be 6f09 a9bd
00000280: 9d6e 2abe 3523 1b3e 90d7 abbd 2061 aabc
00000290: 4e0c 9a3d 1528 3d3c 9a05 913d 964b db3d
000002a0: 3ab2 1d3e 0482 973e 8828 953b 1818 cabd
000002b0: abe8 a53d adae cfbc f12c fd3b 29b9 ddbd
000002c0: 692a fdbd d89d 223e 77fe 21bd 2b6e 22be
000002d0: 3ff5 e3bc 376a 89bd 62f6 b9bd cb11 eabd
000002e0: a856 80bd 7614 30be 6408 9cbe bc33 56be
000002f0: c462 95bd 364d dd3d 0a1c 683e c5ce 15bd
00000300: 54f4 ae3b d21d 1e3e 045c 403d 60f0 ff3c
00000310: 4016 51bd 70bc 9a3c 85f8 a5bd b48f e3bd
00000320: b089 ad3d 414e 5c3e c432 84be ebf9 e43d
00000330: a0c5 383e 0fd5 49be 4b94 c4bb 67ce e93d
00000340: 61b0 293c 5833 d1bd b7da 483d d286 493d
00000350: 7728 2fbe 0910 9b3c 0532 90bd 13d4 a2bd
00000360: d294 27bc 3f70 473c 6f08 64bd a422 243d
00000370: 8902 54bb 78db 6e3d 3e95 dc3d 2231 66bb
00000380: d6d8 5ebd 9ba7 c7bd 1982 30be 4cc3 263e
00000390: fc12 b7bd 7379 7fbb 8abc 513d 133d 1fbe
000003a0: c8c6 323d 0cd4 bc3d a65d b13d 38a8 14bd
000003b0: 5e2b e8bc e023 f9bc ce76 4abd d0d8 f5bc
000003c0: a662 113d badb 5cbd ba72 abbd 436f 6dbd
000003d0: fa0f 8fbd 047c 9cbe 739a 24be 8356 4dbe
000003e0: 2d1d 3fbe d830 a93d 222c 59be 5749 3dbc
000003f0: 357e 3cbe 9396 43bd 623a 823e 8fb8 64be
-0.1318434 0.041583944 0.13819143 0.17156944 -0.038726725 0.018605437 0.046574686 0.051593486
0.07535369 -0.0771118 0.059345506 -0.023990938 0.10645949 -0.025273198 0.009184861 -0.01801302
0.018164242 0.026195444 -0.26264712 -0.18100621 -0.052217413 -0.1111402 -0.2868321 -0.1444139
0.088933304 -0.3159807 -0.1550977 0.0008853347 -0.13554394 0.055444814 -0.00087521086 -0.20744883
-0.097387105 -0.03465516 -0.12663585 -0.088096485 0.077412456 0.084122695 -0.029647987 -0.0672813
0.2554484 0.02538088 -0.019103855 0.14922917 -0.07067177 -0.10099695 0.00048114467 0.0096646305
0.106343254 -0.113026105 0.019927848 0.0775799 0.06982881 -0.0010625287 -0.0054305694 0.13601209
0.10771626 0.07605651 -0.08449649 -0.1131856 -0.07626352 0.010793109 0.11768631 -0.100051664
0.07230054 -0.07587425 -0.13538788 -0.035107806 0.07550096 0.1064769 -0.090940244 0.007924408
0.08900463 0.09226624 0.071846016 0.11211046 0.08737471 0.025308415 -0.09213941 -0.12530473
-0.07935992 -0.010192362 -0.12232663 0.0458266 0.06100387 -0.05233911 0.025288638 0.011685769
0.10007638 0.13914612 -0.042412374 0.16136196 -0.001697942 -0.0040564984 -0.11665861 -0.074335
-0.12552223 -0.06983295 0.100226626 -0.050171837 -0.11837364 0.046223722 0.05252051 0.073834464
-0.07524223 0.033537153 -0.051475614 -0.043030366 -0.029035036 -0.12274131 0.103225164 0.14867452
0.3317172 0.007326019 0.30195165 0.1413054 0.3975875 0.09337353 -0.00934519 0.126266
-0.045158185 -0.12477482 -0.113192014 -0.090568356 0.0033325115 0.18322006 -0.20602977 -0.13418742
-0.07707768 -0.019318959 0.049260627 -0.16640346 0.025733363 -0.006971616 0.3144291 -0.07537212
0.2053237 0.022518389 0.005245826 -0.19124809 -0.01863101 -0.17620723 -0.005950179 -0.06957063
0.1374466 -0.05274236 -0.057431515 -0.04968856 0.05635055 0.15122168 0.08528117 0.06752299
-0.12125215 0.23351917 0.10929332 0.06939188 0.10621134 -0.19203927 -0.19362307 -0.082537524
-0.16643758 0.15150149 -0.08390725 -0.020798266 0.07521878 0.011545201 0.070811465 0.10707776
0.1540002 0.29591382 0.004551951 -0.09867877 0.081010185 -0.025351847 0.0077263047 -0.10826332
-0.12361605 0.15880525 -0.039549317 -0.15862338 -0.027826903 -0.06709712 -0.09080197 -0.11429175
-0.06266528 -0.17195305 -0.30475152 -0.20918173 -0.07294229 0.108057424 0.22666946 -0.036574144
0.005339185 0.15441063 0.046962753 0.03124255 -0.05104661 0.018888682 -0.08104042 -0.111113936
0.084735274 0.21514226 -0.2581998 0.111804806 0.18044138 -0.19710182 -0.005999123 0.11416321
0.010356993 -0.10214871 0.049036708 0.04920084 -0.1710528 0.018928545 -0.070407905 -0.07950606
-0.010228353 0.012172758 -0.055672105 0.0400721 -0.0032350144 0.05831477 0.10770653 -0.00351245
-0.05440601 -0.09748765 -0.17237128 0.16285437 -0.08939168 -0.0038982301 0.051205195 -0.15550642
0.043646604 0.09220132 0.0866044 -0.03629324 -0.028340992 -0.030412614 -0.049429707 -0.03001061
0.03549447 -0.053920485 -0.08371492 -0.057967436 -0.06985469 -0.30563366 -0.16074543 -0.20052533
-0.18663473 0.08261269 -0.21208242 -0.01155313 -0.18407519 -0.04775102 0.25435168 -0.22336029

conv2.0.bias f4 [16]
00000000: b2bb 6cba 1f32 e0bd fb8e 323d 1825 2b3d
00000010: 1ff2 943d f252 dd3d 9a1a 4f3b 7d3a ebbd
00000020: c729 46bc 5e60 873d 3adc 8c3c b97f 5c3d
00000030: ba51 f53c 59c1 023d 44c1 353b 98c8 873d
-0.00090306543 -0.1094706 0.043593388 0.041783422 0.072727434 0.10806836 0.003160155 -0.11485765
-0.012094921 0.066101775 0.017194856 0.053832743 0.029946197 0.031922672 0.0027733603 0.06630057

fc1.0.weight f4 [120, 576]
00000000: 4c18 ebbc 1654 993c c16c 313d f630 9a3d
00000010: 3ff2 883d daf6 fc3c 0648 b2bc 5e78 50ba
00000020: 60ec c63a 1e9d 65bc 7562 f23d 2271 32bd
00000030: 36ec abbc c5a2 56bd 5240 89bd 896a 4e3d
00000040: b260 5f3d 51e6 ac3c 37ea d1bb 3fe0 1d3b
00000050: d282 8fbd b94f 393e 3558 cfbd 5044 94bd
00000060: c0c5 113d d1fd 343d 2a94 443d 3fb2 113d
00000070: 19b5 ec3d 6392 813d 2b6e 183d ccb6 a7bd
00000080: 2e9c 93bb c3e0 523d fe38 523d fb56 72bd
00000090: 3c6d 4b3c 90f6 42bc e239 9c3c 36cd d53c
000000a0: 50d8 d3bb 6c36 a53c 632e 0e3c 88c5 023d
000000b0: fc6b cfbc 37d7 4bbb a5c1 7fbc 6bbb 163d
000000c0: 7c93 16bd 1b71 bfbc 98f8 d63b 2563 fd3c
000000d0: 21a3 d53c ccde 1abd 0fa1 d0bc cdee 1e3d
000000e0: a5f8 243c 8cf9 0abd 70d5 1cbc 2da7 983c
000000f0: 496e 51bb 2b25 f9bc c97b 18bd 03b3 b0bc
00000100: 657a 17bc 8ec6 a83c 312a 8f3c 1e11 d0bc
00000110: e680 14bc fe3d c8bc 327c fb3c e4fe 2b3d
00000120: a853 083d 9e71 3c3d d983 cbba 4db2 703d
00000130: 3779 ad3d 8dc7 5b3c 8cac b93c 889a d2bc
00000140: 5f34 d2bc 117f 57bd 77c2 9d3c 975d a4bb
00000150: 08b2 163d 89a3 133d b182 393b ecfd e93d
00000160: 5114 0c3e 4ca3 103d badc 88bd 12ef 803d
00000170: 7e5a 9a3d e12a 953d 14cb ae3d 3556 13bd
00000180: 3813 80bc fa96 17bc 8937 a43d b415 d13d
00000190: d303 173d cbe7 aa3d 1e29 d63c adc4 dc3d
000001a0: 1293 ca3d 2600 0d3e 2e4a e63d 851b 873d
000001b0: 538a 0fb9 4b20 e23c 179b 243d d21a 6c3b
000001c0: 163d f43d 337b 063b 2ca0 febb 4efd f13c
000001d0: 8329 85bc 3004 253d 8178 053b 9650 77bb
000001e0: 23cb 48bb 05d7 e83c fc5d 84bd cab4 b2bb
000001f0: d125 833d ccd3 863c d6e5 713d a526 88bc
00000200: 9f6f 763d 188b e0bd 6475 bf3d c63a b33d
00000210: 0d89 df3c f2c7 20bb 967e 863d 028f d23c
00000220: 8777 b73c bbf8 b53d 1912 e13c 4c94 04bd
00000230: 29ec 47bc bf7b 573d 140a 5f3d e9e8 523d
00000240: f974 143d 2810 913b 3f18 7b3c a6f2 67bc
00000250: fa6a 3bbd 1a14 673d b17d 5e3c 0893 75bc
00000260: cf08 59bd c6cc 77bd 9d79 1cbd fdb7 013d
00000270: 27e5 72bd 693d 51bd 9c53 99bd 6ccf 98bc
00000280: 55f8 2f3d 2c9c d23c cb5e a43c fe5a 1b3d
00000290: 1c6f 1bbd a9bc db3c cb31 5d3c 02ab 2a3d
000002a0: fa7f 053e 43b1 053d ae0d 3b3d 1b65 3dbe
000002b0: cf93 9fbd 8596 e7bb 690b cc3c a3a3 4e3d
000002c0: 53e0 e3ba 073c 67bd d8b2 74bc b6a9 31bc
000002d0: c397 f53c a5d2 123d e143 543d 8ab3 24bc
000002e0: e305 13bc be48 eebb 9007 8abc b390 a63c
000002f0: c2d2 78bc f71e e63d d2ca c0bb a68d e63c
00000300: e1bb 97bb 8cac a73d 3734 f7bc 42e7 e63b
00000310: 358e 7e3d 1af2 273d 11fd f0bc fe22 243d
00000320: 613c 33bd be31 ad3c 80b0 403d b9f5 423d
00000330: 5275 963c adf1 b83a d328 9dbc d658 3cbd
00000340: f6f4 063d a6b0 bfbc 5e89 d9bc c6f0 aabb
00000350: f4fb 4abc 5dbf 7cba d58f 9c3c 5ae6 f1bb
00000360: 639f 103d 015e d7bc 45a5 023d 6e8e 883d
00000370: 4bf4 38bd cacf 8c3d dcfe 053d 2035 15bd
00000380: c702 12bd d8d9 e33d b1be 1bbd 7d07 d839
00000390: c09f bbbc 0021 b5bc 771a f33d 3301 38bd
000003a0: 316e 27bd 5884 223d 7ae3 2e3d 1842 d33b
000003b0: fff6 bb3d 45e6 983d 67b3 c83d 4748 89bd
000003c0: 8058 8c3a a340 933d bb43 4e3c 6292 003e
000003d0: f631 433c 0c72 033c bca1 393d a284 6e3d
000003e0: ad40 903d bd6b 5abd f244 963d 8076 ef3d
000003f0: 03bc deba 8155 6e3b 6164 cd3d be3e 5c3d
-0.02869811 0.018716853 0.043316606 0.0752887 0.0668683 0.030879427 -0.02176286 -0.00079525064
0.0015176646 -0.01401451 0.118351854 -0.043564923 -0.020986658 -0.052401323 -0.06701721 0.05039457
0.054535575 0.021105917 -0.0064060944 0.002408996 -0.07007374 0.18096818 -0.10124246 -0.07239592
0.03558898 0.04418737 0.047992863 0.03557038 0.11557979 0.06326749 0.03721444 -0.081891626
-0.004504702 0.05148388 0.051323883 -0.059164982 0.01241618 -0.011899605 0.01907057 0.026098829
-0.0064649954 0.020167552 0.008678052 0.03192666 -0.025320046 -0.003110362 -0.015610133 0.03679983
-0.036761746 -0.023369363 0.0065603964 0.030931065 0.026078762 -0.037810132 -0.025467424 0.038801957
0.010069047 -0.033929393 -0.009572372 0.018634403 -0.0031956604 -0.03041323 -0.037227426 -0.021569734
-0.00924549 0.02060249 0.017476173 -0.025398787 -0.009063935 -0.024443623 0.03069887 0.04199113
0.033282906 0.04600679 -0.0015526965 0.05876379 0.084703855 0.013414276 0.022665285 -0.025708452
-0.025659738 -0.052611414 0.019257767 -0.0050160396 0.036790878 0.03604463 0.0028306658 0.11425385
0.13679625 0.035311982 -0.06682725 0.06295599 0.07536791 0.07283569 0.08534828 -0.035970885
-0.015634164 -0.009252304 0.08018405 0.10209218 0.03686888 0.08344992 0.026142653 0.107797004
0.09891333 0.13769588 0.112446174 0.06597046 -0.00013689073 0.02760329 0.040186968 0.0036026728
0.11925714 0.002052021 -0.007770559 0.02953973 -0.016255146 0.040287197 0.0020366015 -0.0037737242
-0.0030638657 0.028422842 -0.064632386 -0.0054536806 0.06403697 0.016458414 0.05905708 -0.01661999
0.060165044 -0.1096403 0.09348562 0.087514445 0.02728703 -0.002453324 0.06567113 0.025702957
0.022395862 0.08885332 0.02747445 -0.03236799 -0.012202301 0.052608248 0.05445297 0.05149165
0.036244366 0.004426975 0.015325605 -0.014156973 -0.045756318 0.056415655 0.013579772 -0.014988668
-0.052986916 -0.06049802 -0.038201917 0.031669606 -0.059300568 -0.051083956 -0.0748665 -0.018653594
0.042961437 0.025709234 0.020064732 0.037928574 -0.03794776 0.026823359 0.013500641 0.041666992
0.130371 0.032639753 0.045667343 -0.184956 -0.07791864 -0.007067504 0.024907785 0.050449025
-0.0017385579 -0.05645373 -0.014935218 -0.010843685 0.029979592 0.035845418 0.051822547 -0.010052571
-0.0089735715 -0.007271855 -0.01684931 0.02033267 -0.015186967 0.11236375 -0.005883553 0.028143715
-0.004630551 0.081872076 -0.030176265 0.007046611 0.062147338 0.04100237 -0.029417546 0.040072434
-0.043758754 0.021141883 0.047043324 0.04759762 0.01836649 0.0014110111 -0.019184506 -0.045983158
0.032948457 -0.023399662 -0.02655476 -0.0052166907 -0.012389172 -0.00096415525 0.019111553 -0.0073821964
0.035308253 -0.026289942 0.031895895 0.06667791 -0.04515485 0.0687557 0.032713756 -0.036427617
-0.03564718 0.11125535 -0.038023654 0.0004120431 -0.022903323 -0.022110462 0.11870282 -0.04492302
-0.04087657 0.039676994 0.042697407 0.006447088 0.0917797 0.074657954 0.09799843 -0.06703239
0.0010707527 0.07190063 0.01258939 0.1255584 0.011913767 0.008022796 0.045320258 0.058231957
0.07043586 -0.053325403 0.07337369 0.11692524 -0.0016993288 0.0036366882 0.100289114 0.053770773

fc1.0.bias f4 [120]
00000000: c87a 283d 4ccd d13c 5e64 b43c 1f86 103d
00000010: e5b7 bb3c b648 95bc 2f8e d8bc 1a45 39bc
00000020: e9a4 f5bc ffab a4bc f611 a2bc 2e36 193c
00000030: a714 1abd 2cc1 133d b529 4fbc acb0 babc
00000040: 5ba0 21bd 9afd e83c c2bc 23bd 43c8 e9bc
00000050: 7ba7 85bc 6578 f73b 7132 7bbc 6112 bcbc
00000060: f607 86bc 68ba 253d f33e 4e3c 0bd3 d4bb
00000070: 5c7c 13bd 12b4 8d3c 22aa eb3c 4baf 99bc
00000080: 9c0b 98bc 1b15 2d3c 2f9a 8c3b b304 a1bb
00000090: 7c8e eebc 4e42 48bc 24b7 f4bc c3d7 903b
000000a0: 4f1f 81bc 8bbc 983c 9995 e43b ec96 fb3c
000000b0: ffa4 0bbd 4777 b2bc 2d84 0dbd 8da2 10ba
000000c0: 388e 9c3c 197f 8d3c e0aa 823b cc13 d03c
000000d0: 366e beba 99e1 e4bc 618c 793c 4076 dabc
000000e0: 4f0a e83c e0f1 b23c d9c3 c53c c489 c2bb
000000f0: 368b 84bc 5a79 983c 8d11 16bd 6e2d f7bc
00000100: b5f2 96bc 1d5a 14bd 1a88 03bd bb02 7e3c
00000110: 40d0 f3ba 74c3 f4bc 12c5 663a 1491 7ebc
00000120: 64f4 5cbc c332 153d 093e 1c3d 5996 0b3d
00000130: e880 74bc 835a 0d3c c773 bbbc 0d7f 683c
00000140: ef6f 463c 4739 dd3a 42fa 733c 060a 80bb
00000150: ac51 daba cef6 873b 2084 89bb 6d1a 98bb
00000160: 552a 5cbc bfb4 beba 1a05 a1bb b6eb 0fbd
00000170: 91b2 d03c 3227 a33c 20e7 b3bc 79e4 01bd
00000180: e572 023d e3c0 9a3c 307f 74bc c4f5 b13c
00000190: 1ac0 973c 06e2 08bd 5cf5 16bd 735c 0cb9
000001a0: aa23 bd3a 7cd0 773c 275a 4439 091e 033d
000001b0: 1297 283d a3d7 183c d49f edbc ea3f 12bd
000001c0: 8724 26bd 9970 b63b 1af5 e3bc 445c 133d
000001d0: ec4c cdbc 8516 d23c 6d67 533c 552e 093c
0.04113272 0.025610588 0.022020515 0.035284158 0.022914836 -0.018223148 -0.026434986 -0.011307979
-0.029985862 -0.020101545 -0.019783955 0.009351296 -0.03761735 0.036072895 -0.012644221 -0.022789322
-0.039459568 0.02844124 -0.039974935 -0.028537875 -0.016315212 0.007552194 -0.01533185 -0.022957982
-0.016361218 0.040460974 0.01258825 -0.006494885 -0.03600727 0.017297778 0.02876765 -0.018760344
-0.018560223 0.010564114 0.004290841 -0.0049138903 -0.029120676 -0.0122228395 -0.029872485 0.004420252
-0.015762 0.018644592 0.0069758412 0.030711614 -0.0340929 -0.021785391 -0.03454988 -0.0005517386
0.019110784 0.017272519 0.003987655 0.025400065 -0.0014528695 -0.027939605 0.015231223 -0.026667714
0.028325228 0.02184385 0.024141239 -0.005936833 -0.016179662 0.018612552 -0.03663783 -0.03017303
-0.018426279 -0.03621875 -0.03211222 0.015503581 -0.0018601492 -0.029878356 0.00088031695 -0.015537519
-0.013486002 0.036425363 0.0381451 0.03407893 -0.014923312 0.008627537 -0.022882355 0.0141904475
0.012111648 0.0016878032 0.014891209 -0.003907445 -0.001665642 0.0041492945 -0.0041966587 -0.004641822
-0.013437827 -0.0014549716 -0.004913938 -0.0351369 0.025475772 0.01991615 -0.021960795 -0.03171203
0.031847853 0.018890804 -0.014922902 0.021723635 0.018524218 -0.033418678 -0.036855087 -0.0001338588
0.0014430184 0.01512539 0.00018725601 0.032011066 0.041159697 0.009328756 -0.029006876 -0.035705484
-0.04056218 0.005567622 -0.027826834 0.035976663 -0.025061093 0.025645504 0.012903077 0.008372863

fc1.1.weight f4 [120]
00000000: 40bf 803f 7951 833f d230 843f 972b 823f
00000010: 5404 843f 8381 773f 685d 8f3f 29b3 843f
00000020: 6a8a 7f3f 8a21 783f fcd6 873f d527 803f
00000030: 707f 863f e810 843f 2663 8b3f 1f7a 803f
00000040: e518 8b3f 4a7f 833f bd14 803f 6287 7f3f
00000050: e0ad 743f 3e67 8a3f e109 793f 9249 863f
00000060: 6c5f 813f 3b1e 833f bee9 8b3f 3cbe 843f
00000070: 811c 743f 2857 843f e414 893f f96c 6a3f
00000080: a823 8d3f b607 7d3f 0b77 873f 122c 893f
00000090: 9aba 7d3f a04f 7f3f a4a3 8e3f 8e91 7b3f
000000a0: fef0 833f 0cbb 803f 1be0 8e3f 6b5b 823f
000000b0: ff97 7f3f 902f 7f3f 6907 833f 347e 863f
000000c0: f6ac 6e3f 9c91 6b3f 4e70 853f 4969 773f
000000d0: a05e 8c3f 0dae 883f 3c12 8a3f 5c40 843f
000000e0: a87a 8c3f 335e 803f 94ce 883f 7db4 873f
000000f0: 640a 8f3f 3178 833f bc2a 773f 4295 6e3f
00000100: 4f7f 763f 68ed 7a3f 15ed 803f 2132 8c3f
00000110: 747c 823f ad0b 843f 000a 893f bab5 783f
00000120: cdc7 823f 3dc7 883f a18e 823f 2e24 773f
00000130: 1bf6 893f fbe9 833f b955 823f ae40 823f
00000140: f51e 893f b186 863f eca8 853f ec88 8e3f
00000150: d939 773f 342e 733f 92e9 7b3f d7e5 853f
00000160: 6d1e 863f a948 803f e914 873f 2e50 863f
00000170: 7982 853f 35f3 813f 6cbf 843f 21ff 683f
00000180: 51f6 7b3f e1d5 6f3f 67de 873f 3c06 833f
00000190: 5892 883f a9d0 833f e7ad 713f 8ea2 7a3f
000001a0: e238 6d3f 81fe 783f 2a5d 833f 89eb 823f
000001b0: 932c 833f 6d94 883f 5271 8c3f 7e1e 753f
000001c0: d8d1 8d3f ba68 813f d81a 763f bc5e 693f
000001d0: cea4 7b3f 53a3 863f de72 853f b88d 873f
1.0058365 1.0259238 1.0327399 1.0169553 1.0313821 0.96681994 1.120038 1.0367175
0.9982058 0.96926177 1.0612483 1.0012156 1.0507641 1.0317659 1.0889633 1.0037268
1.0866972 1.027322 1.0006329 0.9981595 0.9557781 1.0812757 0.972807 1.0491202
1.0107245 1.0243601 1.0930707 1.0370555 0.95355994 1.0339098 1.07095 0.9157253
1.1026506 0.9883989 1.0583204 1.0716574 0.99112856 0.99730873 1.1143689 0.98268974
1.030792 1.0057082 1.1162142 1.0184149 0.998413 0.9968195 1.0236636 1.0507264
0.9323267 0.9201906 1.0424898 0.9664503 1.0966377 1.0678116 1.0786815 1.0332141
1.0974932 1.0028747 1.0688043 1.0601956 1.1175046 1.0271055 0.9654958 0.931965
0.9628801 0.98018503 1.0072352 1.0952798 1.019423 1.0316063 1.0706177 0.9715229
1.0217224 1.0685803 1.0199777 0.9653958 1.077823 1.030578 1.018241 1.0175989
1.0712572 1.0509855 1.0442176 1.1135535 0.96572644 0.94992375 0.98403275 1.0460767
1.0478035 1.0022174 1.0553256 1.0493219 1.0430442 1.0152346 1.0370917 0.91014296
0.98422724 0.9368573 1.0614747 1.0236278 1.066966 1.0298053 0.9440598 0.9790429
0.9266492 0.9726334 1.0262806 1.022813 1.0247978 1.0670296 1.0972083 0.9574965
1.1079664 1.0110085 0.9613471 0.9116018 0.98298347 1.0518593 1.042568 1.0590124

fc1.1.bias f4 [120]
00000000: 3411 813c 4288 a4bd 713b 0fbd c72a 6cbd
00000010: 2155 2cbd 02d8 c4bd e3ff 31be 6730 2cbd
00000020: 9013 d2bd 7c43 82bd 3228 22bd 44ba bf3b
00000030: 8057 4dbc 53f3 50bd 2169 babd fc0f 18bd
00000040: 6bfe fdbd d905 80bd a481 81bd 236f d7bd
00000050: 95e7 2bbd 3764 acbd 12ea eabd 638e 74bd
00000060: cc59 a4bd c38c 38bd b1e4 02be b68c 263d
00000070: abac e8bd 14f8 1abd 7c41 05bd 6a4b b7bd
00000080: b3b2 b8bd 840e 92bd fca0 b5bd 734e 5fbd
00000090: 7915 fcbd f6ad 2dbd 0888 c4bc 6f2d a9bd
000000a0: 1bb1 d4bd 6a59 d3bd 4971 dfbc afe1 d7bd
000000b0: d362 2bbc 1bb0 8d3c cee5 a2bc e3cb 64bc
000000c0: 1143 51bd dcf2 e5bd 459c 54bd 952a 2ebc
000000d0: d552 a83a 98b8 f6bd ec9a 5d3c 3223 b9bd
000000e0: 876e a9bd fc48 cbbd 71c1 e8bd 8c31 0cbe
000000f0: 483a 5dbd be02 aabd df14 0fbe 6e58 61bd
00000100: 8994 06be c170 33bd 5345 a4bd a3a6 79bd
00000110: fc7d 9abd 8aba e8bb c9c7 0bbc 7d15 04bd
00000120: c2c3 9fbc 6704 dcbd cb9e 2cbe a987 e7bd
00000130: b746 043d ba2b 8cbc 202f cdbd e338 05be
00000140: 4678 bbbd f1db 7cbd 6e35 d9bc eb60 07be
00000150: 62f5 c1bc 192e b8bd 5988 bebd c481 0bbe
00000160: b713 f3bd dfdc e1bd 2923 4dbd 3075 4bbd
00000170: 47f8 d3bd 7446 d9bd a8fe 51bd 5d80 19be
00000180: ccf3 96bd 931b 00be 5b99 c2bd f345 ccbd
00000190: e1b3 f5bd 3b61 0cbd df95 44be 4a72 12be
000001a0: 9e76 dcbd 77f1 fcbd 8613 a9bd d085 223d
000001b0: d01a e9bd b778 91bd ec66 c4bc fedd c0bd
000001c0: 5422 5ebd 4ffb 6cbd c9db e6bd 8417 bdbd
000001d0: ba31 65bd b7c4 dfbd 5544 e2bd 3e92 08bd
0.015755273 -0.080338016 -0.034968797 -0.057657983 -0.042073373 -0.09611513 -0.1738277 -0.042038348
-0.102576375 -0.06360528 -0.039589114 0.005851062 -0.012533069 -0.051013302 -0.09102083 -0.03712462
-0.12402042 -0.06251115 -0.06323555 -0.105192445 -0.0419689 -0.08417552 -0.114704266 -0.059706103
-0.0802494 -0.045056116 -0.12782551 0.040661536 -0.11361059 -0.037834242 -0.032533154 -0.08949931
-0.09018459 -0.07131675 -0.08868596 -0.054518174 -0.12308783 -0.04240223 -0.023990646 -0.08260619
-0.10385343 -0.10319789 -0.027275698 -0.105410926 -0.010460573 0.017295888 -0.01988497 -0.013964626
-0.05108935 -0.112279624 -0.051906843 -0.01063027 0.0012842069 -0.12046927 0.013525706 -0.09039916
-0.082730345 -0.0992603 -0.11365021 -0.13690776 -0.05401066 -0.08301304 -0.13972805 -0.055015974
-0.13142599 -0.043808702 -0.08021035 -0.060949933 -0.07543561 -0.0071023153 -0.008531519 -0.032247055
-0.019502524 -0.10743027 -0.1685745 -0.11305172 0.032294 -0.017110694 -0.10018754 -0.13009982
-0.091538 -0.06173319 -0.026514735 -0.13220565 -0.023676578 -0.089931674 -0.0930335 -0.1362372
-0.11868995 -0.11028456 -0.05008236 -0.049672306 -0.103500895 -0.10609141 -0.05126825 -0.14990373
-0.07370719 -0.12510519 -0.095019065 -0.09974279 -0.119972 -0.034272414 -0.19197796 -0.1430141
-0.10764812 -0.12350743 -0.08255677 0.039678395 -0.11382067 -0.07103103 -0.023974858 -0.09417342
-0.054231957 -0.057856854 -0.112723894 -0.09233001 -0.055955626 -0.10926192 -0.110481896 -0.033342592

fc1.1.running_mean f4 [120]
00000000: d552 e73f 1914 bb3f 93e7 dd3b 6b37 14be
00000010: 3c86 b63e 20e9 3d3f 24f9 d53e 6cdc b33e
00000020: ebbb 673e 9e81 92bc 2801 f73e 4ef1 e9be
00000030: 3f9b 84bf 941e 2c3e e626 d83e ed0e 1abf
00000040: 3741 a2be 8039 1d3d d3c7 97be f0bd 083f
00000050: 1263 82bf b259 973d 1253 5dbf 9956 013f
00000060: b835 a03e be89 443d 5444 11bf 97dd 45be
00000070: f03a f5be f2a4 05bd f6d8 703e 0c39 46bf
00000080: 7530 d3bd bc9a 28bf 9dc3 c0be 3a25 333e
00000090: afbc 4abf 07db 02bf eab4 563e a1f8 14bf
000000a0: b2f2 2bbf 71f6 9b3f d162 573f 3a2c 4fbe
000000b0: e2bb 0cbe 1f78 023f cee6 4fbf 8f82 243e
000000c0: b8fe b8be d009 a63f 2277 243f fb14 bdbd
000000d0: 06d2 8f3e 06e0 86bf 0e26 c13f 3e76 913f
000000e0: 08ff 333a 4195 58be 92ef 43bf bbda 28bf
000000f0: 5c32 2fbf a2bf 6c3e 9ed1 e33e 2c56 ba3d
00000100: aa06 ab3f 195e 83bf b3f4 633f 40e0 92bf
00000110: b9d7 f33e 3177 3b3f 54a7 a7bf cf9a a2bd
00000120: 0290 be3f 98dd fabe d827 e6bd bc82 a3be
00000130: df44 88be 4e14 9e3f b14a f53e 0d06 cd3e
00000140: 69f4 6fbf fdd8 963d 32bb 33be 9cf4 b03e
00000150: 18d1 3e3f f937 0dbf bba0 ffbe 6727 c43d
00000160: c56a 0e3f b6f7 48bf e189 603e 99d5 f7be
00000170: 85fd 14bd 97f5 a1be 9c9a 68bf 37a5 1dbe
00000180: 2be0 9dbe 167e bd3f 396d 0f3f 6a3d 60bd
00000190: 8634 a1bd abef 54bf 5c8c 9bbf f014 3f3f
000001a0: d37b febe e78a 193f 5871 b53e d85d 313e
000001b0: f36b 48be cfba 2a3f 2f3f d4be a9c1 85be
000001c0: a298 f6bc 2a12 09bf 9e5c df3e b6f1 1ebf
000001d0: cd43 25bf a51e aebe 1a37 533d bb1f d53e
1.8072153 1.4615508 0.0067719906 -0.14474265 0.35649288 0.74183846 0.41791642 0.35129106
0.22630279 -0.017884072 0.4824307 -0.45691913 -1.0359877 0.1680854 0.42217177 -0.60179025
-0.3169038 0.038384914 -0.2964464 0.5341482 -1.0186484 0.07390155 -0.8645488 0.5052276
0.31290984 0.047982924 -0.56744885 -0.19322811 -0.47896528 -0.032628007 0.23520264 -0.77430797
-0.10311977 -0.65861106 -0.3764924 0.1749467 -0.7919416 -0.5111546 0.2096745 -0.5819188
-0.671672 1.2184583 0.84135157 -0.20231715 -0.13743547 0.5096454 -0.81211555 0.16065429
-0.36131835 1.2971745 0.6424428 -0.09232517 0.28089923 -1.0537117 1.5089738 1.136421
0.0006866311 -0.21150686 -0.7653743 -0.65958756 -0.6843622 0.23119977 0.44495863 0.09098467
1.3361409 -1.0263091 0.89045256 -1.1474686 0.4762552 0.73228747 -1.309794 -0.07939684
1.4887698 -0.48997188 -0.11238068 -0.3193568 -0.26615044 1.2349946 0.47908548 0.4004368
-0.93732315 0.07365606 -0.17551878 0.34561622 0.745378 -0.5516353 -0.49927315 0.09577828
0.5563167 -0.78502977 0.21927597 -0.4840515 -0.036374588 -0.31632683 -0.90860915 -0.15395056
-0.3083509 1.4804103 0.56026036 -0.05474607 -0.07871346 -0.83178204 -1.2152209 0.74641323
-0.49703845 0.59977573 0.35438037 0.17320955 -0.1957243 0.666913 -0.41454455 -0.26124313
-0.030102078 -0.5354334 0.4362535 -0.6208757 -0.6455658 -0.34007755 0.05156622 0.4162577

fc1.1.running_var f4 [120]
00000000: e3d3 553d a03d 903d 333c a83d ddb6 ba3d
00000010: 140e 853d 6122 943d 5794 9b3d 4871 643d
00000020: cf78 4d3d 95f9 323d 78ee ab3d 6fbc 903d
00000030: 9b76 713d 1b7b 9a3d cf6c 553d 01a9 9c3d
00000040: 7f32 943d 6c06 873d 0d0e b33d 7012 8a3d
00000050: 0b08 733d 945a e13d ff44 8a3d 2d5c 063d
00000060: 6b87 7f3d 258c 963d 9d38 5d3d dba4 983d
00000070: c145 593d 9de5 753d 8b4b f73d 7620 833d
00000080: 3793 b43d 1e5d 013e 6316 843d c924 fe3d
00000090: 22e6 c63d b839 413d 679c 293d 3a83 b63d
000000a0: 1eb1 823d ad47 463d b32e 6c3d a686 443d
000000b0: 1b7e 883d 7c54 893d 61ec 943d 2f7c a13d
000000c0: 18fc ae3d fe04 213d 2ece 903d 7681 9c3d
000000d0: 83be 563d ddf3 813d 9933 983d 0b1a 6a3d
000000e0: 6642 9d3d 3105 523d 8631 8c3d 42a9 923d
000000f0: a44a 163d 4123 b93d 5c54 5d3d 185b 653d
00000100: 8bb2 9d3d dda5 3f3d 321a cc3d 4644 9c3d
00000110: f88b 933d 80bc 8a3d 5c5a 873d 7754 ba3d
00000120: 1e53 1a3d 04c7 833d 6921 433d 7dde 603d
00000130: 81d0 853d a823 b13d dcfb 2e3d 4d11 633d
00000140: 2a7c 623d 901b a53d c5aa 9a3d e64c 493d
00000150: 26a0 983d 7f2e 363d 58e9 cd3d bb4a 783d
00000160: 4d24 913d 9dc5 833d 74b1 8a3d a398 733d
00000170: 18d5 8e3d 0513 7e3d 777f 8f3d 7c04 963d
00000180: b9aa 553d cc04 5c3d 2cda 803d 9cb3 363d
00000190: 7119 883d 8e07 bc3d 9cf3 453d 35bc 943d
000001a0: 4ed1 d43d df17 293d b37e 6f3d 415a 423d
000001b0: cbf6 7a3d c869 773d 7fce 913d 54e6 9f3d
000001c0: c1e5 9c3d 24ba 6d3d 3eef de3c 7af1 af3d
000001d0: 34f9 2c3d 7d0e 773d 7562 6c3d a91b 853d
0.052204024 0.07043004 0.08214607 0.0911691 0.06496826 0.0723312 0.07596653 0.055772096
0.05016404 0.04369505 0.08395094 0.07067191 0.058951 0.07543012 0.05210572 0.076494224
0.07236194 0.06593022 0.08742914 0.06741798 0.059333842 0.110036045 0.06751441 0.03280275
0.062385004 0.07350949 0.05400907 0.07453319 0.053045038 0.06003343 0.120749556 0.06402676
0.088171415 0.12633178 0.064495824 0.1240936 0.09711863 0.047174186 0.041408923 0.08911748
0.06381439 0.0484082 0.057661723 0.047979973 0.06664678 0.06705567 0.07271648 0.07885014
0.08544177 0.0393114 0.07070576 0.0764188 0.05242778 0.06345341 0.074317165 0.057153743
0.0767868 0.051274482 0.06845383 0.071611896 0.036692277 0.09039927 0.05403553 0.055995077
0.0770007 0.04678904 0.09965934 0.076302096 0.07204431 0.06774235 0.066090316 0.09098142
0.037676923 0.064344436 0.047639284 0.05489968 0.065339096 0.08649379 0.04272066 0.05543642
0.055294193 0.08061898 0.07552103 0.0491456 0.07452421 0.044477936 0.100542724 0.060618144
0.07087002 0.06434176 0.06772128 0.059471738 0.06974238 0.062029857 0.07006734 0.07325074
0.052164767 0.053715512 0.06291613 0.044604883 0.066454776 0.091811284 0.048328027 0.0726246
0.10391484 0.04128253 0.05847044 0.047449354 0.061270516 0.060403615 0.07119464 0.078076035
0.076610096 0.058038846 0.027213689 0.0859098 0.042229846 0.06031655 0.057711083 0.064994164

fc2.0.weight f4 [84, 120]
00000000: 5331 b33a 04f7 edbc 0dd1 a2bb 30f4 0b3e
00000010: d92c 3d3c 10cc b33c 5470 4a3e 8c58 35bc
00000020: 0d3e 09be d6e1 ca3d 0032 25bd 5e01 4d3d
00000030: 937f bbbd 5781 1e3e d0dc c5bd d6c9 7e3c
00000040: 2c47 b03c 643d b6bd 07c4 663d 5cd8 8f3d
00000050: 439d a53c 1336 0bbe f1f0 acbd 63fe 79bd
00000060: 2ec0 073d a3d2 893c b67e 823d 50cf 8f3d
00000070: 93d2 c6bd 4f63 dc3d c979 31be b1cb 8e3d
00000080: 3fe7 c1bd 2ba8 e0bd 5b69 fb3c 3450 7dbc
00000090: 572f 2f3d 0e0c 0b3d f33c 263d adb5 bb3d
000000a0: ddc1 213e dbfe 203d 2276 d53c 0d23 75bb
000000b0: 61d4 0cbd 6708 b93c 9c38 e93d 2688 59bb
000000c0: 9081 41bd 421d 25bd 09d3 713d bfde ddbb
000000d0: f300 30be 0b26 8c3d a77c 47bd 819e 453d
000000e0: 33ed 0d3e 435f c93d 6938 29bd c14d 173c
000000f0: 7d40 b13d 0964 18bd 9d0c 5ab8 fe4c daba
00000100: 85e2 63bc e4fb f9bc 965d e3bd 1913 cc3d
00000110: 603c 313d bec9 a33c 9f63 8dbc d62f acbc
00000120: 7d33 42bc a870 f93d 828e 3f3d f6bb 7e3d
00000130: 51c5 2fbb 2409 84bd 14d6 a9bd 24a1 a1bd
00000140: 45e4 db3d 9b66 943d 43c1 bc3d fbc2 d2bc
00000150: 7ff1 ac3d 8bc5 49bd 5751 d13b 39f7 85bd
00000160: c26f 423d 8080 353d 5387 b5bc 93b3 24bd
00000170: 02f9 28bd 9ce9 26bd e6d8 eb3d b5ea d03c
00000180: 032d 7f3b 40e3 05bd 2318 3a3d c12e 453d
00000190: 01b4 ab3d cd9c ecbd 1e9e 303c 657d 18bc
000001a0: 8a10 383d f87a 1bbe 79b4 a03d ba8c ac3d
000001b0: b29b ce3d b39e 183d b2d5 cd3d 1790 4f3d
000001c0: 659a 2ebd dca7 c0bc de38 6abc 121f bd3d
000001d0: bc9c 7cbc fe80 cfbd a004 983c 05cb 72bd
000001e0: 5629 b9bd 9e9d 28bd 38a4 313e de5a 3d3d
000001f0: 3c1b 8dbd 4081 29be 86ab e2bc 9fa3 a53c
00000200: 64dd 813c f64d 15bc 1b8c cebc e37d 5e3c
00000210: 9e4e 3dbd cd6f 663d 9fbb 17be abb8 0abe
00000220: 4dc1 f43d 0725 edbc a07f 8e3d e4ee 02be
00000230: dd0c c2bc d47e 87bd 6421 3cbb e538 8b3d
00000240: 22ad 493d 73a8 093d e20e 913d 58b4 cdbd
00000250: 746d 0fbd a0e8 66bd 1534 dcbc babf 72bd
00000260: 5fa7 c23d 9ac4 0f3e e515 3c3d 96ab b9bb
00000270: f738 7d3b ab77 f6bd 7da6 213d 5c6d bb3c
00000280: f0c3 7fbd 4e90 9b3c c913 8abd f6e3 0abe
00000290: a595 f63c d66b ce3c fb12 47bd ec1f d2bc
000002a0: 9105 b1bb 04e1 983d 1b9b 023e 0864 c93d
000002b0: 0ada 0d3d b2c0 04be a573 823b 8faa a43c
000002c0: b6e1 a93d 2f6d 20bd bf4a 0c3e 0ee1 8c3c
000002d0: de6a a03d 6494 1ebd 57ec 093d 4ff9 5cbb
000002e0: 1661 0d3d d150 1c3d 5c68 26be 14fd e23d
000002f0: 2572 2f3d 9969 123e cece c6bd 21d8 88bd
00000300: f499 853c 31e6 383c b999 68bd 7969 5fbd
00000310: 44a5 11bd 7f99 d9bb 182b 243e d53e b4bb
00000320: 20b7 9e3d 975b efbd 7009 de39 f2ff 3abd
00000330: d541 81bd 2ff7 2f3a 5665 903c bf83 bebd
00000340: abde 10be 0f33 0bbc fd30 1b3d 02f2 163e
00000350: f685 81bd cc5b 323e e956 2cbd 1652 f9bc
00000360: f363 ddbc 2cec 83bb 2d7d 823c 0f28 89bd
00000370: 788a 4fbc ec7b 353e cae1 fb3d 3677 463e
00000380: 9bd0 a23d a2a0 b23c 0c12 95bd 3cb2 8d3d
00000390: fec2 ccbb c1ed 8abc 866b 953d 853c 703b
000003a0: 522e c8bd f397 dc3d d826 0e3c f93d 8abc
000003b0: 8565 09bd de71 b33d 8e7e b7bc e163 d03c
000003c0: 7475 68bd c430 c53c e2b4 e33d bde1 f23d
000003d0: 731e 223c 94ab e73c be33 10bd 1e53 b6bd
000003e0: 833c e43c bc74 683b fbcc 673c 1703 0bbe
000003f0: b4ea 08bc 1dd6 9a3d 3a6e e4bd 4793 57bd
0.0013671316 -0.02904845 -0.0049687685 0.13667369 0.011546337 0.02194789 0.19769412 -0.0110684745
-0.13402577 0.09906356 -0.040330887 0.050050132 -0.09155192 0.15479027 -0.09661257 0.015551051
0.021518312 -0.08898428 0.05633929 0.07023689 0.02021659 -0.13594846 -0.084443934 -0.061033618
0.03314226 0.016824072 0.063718244 0.070219636 -0.097081326 0.10761129 -0.17331614 0.06972445
-0.09467935 -0.109695755 0.030689886 -0.015461016 0.042769756 0.033947043 0.04058547 0.09165511
0.15796609 0.03930555 0.026057307 -0.0037404925 -0.034382228 0.022587014 0.113877505 -0.0033192723
-0.0472427 -0.040311106 0.05903915 -0.006770938 -0.17187862 0.068431936 -0.048702862 0.048246864
0.13860016 0.09832623 -0.041313563 0.009234847 0.08654878 -0.037204776 -5.1986997e-05 -0.0016655026
-0.013908987 -0.030515619 -0.111018345 0.0996458 0.04327047 0.01999366 -0.017259417 -0.021018904
-0.011853096 0.121796906 0.046766765 0.062190972 -0.002682049 -0.06447056 -0.08292785 -0.07892063
0.10736898 0.07246133 0.09216549 -0.02572774 0.08444499 -0.049260657 0.0063878703 -0.065412946
0.04746986 0.044312 -0.022159254 -0.040210318 -0.041253097 -0.04075013 0.115159795 0.025502542
0.0038936741 -0.032687426 0.045433175 0.04814029 0.083839424 -0.11553345 0.010779886 -0.00930724
0.044937648 -0.15183628 0.078469224 0.08425279 0.1008829 0.037260722 0.10050525 0.050674524
-0.04262771 -0.023517542 -0.014295785 0.09234442 -0.015418228 -0.10132025 0.018556893 -0.059275646
-0.09041087 -0.04116594 0.173478 0.046229236 -0.0688996 -0.16553211 -0.02766968 0.020219622
0.015852638 -0.009112826 -0.025213292 0.013579818 -0.046217553 0.056258965 -0.14817666 -0.13547008
0.11950932 -0.02894832 0.06957936 -0.12786442 -0.023687774 -0.066159874 -0.0028706426 0.06797961
0.049237378 0.03360791 0.07082917 -0.100441635 -0.035016492 -0.056374192 -0.026880303 -0.059264876
0.0950458 0.14039841 0.045919318 -0.0056662066 0.003863869 -0.120345436 0.039465416 0.022879295
-0.06244272 0.018989708 -0.06742055 -0.13563523 0.030100653 0.025197905 -0.048602086 -0.025649987
-0.005402275 0.07464793 0.1275448 0.098335326 0.034631766 -0.12964132 0.003981071 0.02010086
0.08295004 -0.039166626 0.13700388 0.017197158 0.07832883 -0.038715735 0.033672657 -0.0033717935
0.034516416 0.03816301 -0.16250747 0.11083427 0.042833466 0.14298095 -0.097074136 -0.06681848
0.016308762 0.011285351 -0.056787226 -0.054543946 -0.035558 -0.0066406126 0.16032064 -0.005500654
0.07749772 -0.11687391 0.0004235017 -0.045654245 -0.063113846 0.00067125534 0.017626446 -0.09302472
-0.14147441 -0.00849606 0.037888516 0.14740756 -0.06324379 0.1741783 -0.04207507 -0.03043465
-0.027025199 -0.0040259566 0.01592883 -0.06697094 -0.012667291 0.17723054 0.12298925 0.19381413
0.079499446 0.021805111 -0.07278833 0.06918761 -0.006248831 -0.016959073 0.07295899 0.0036657166
-0.0977446 0.107711695 0.008676253 -0.016875254 -0.033544082 0.08761953 -0.022399213 0.025438251
-0.056752637 0.024071105 0.11118485 0.118594624 0.009894955 0.028280057 -0.035205595 -0.08902572
0.027860885 0.003546997 0.014147992 -0.13575397 -0.008356739 0.0756037 -0.111538365 -0.05263069

fc2.0.bias f4 [84]
00000000: 6893 9a3c 4ef3 12bd 8938 2bbd e2ca 80bd
00000010: 787f 863c 51ab 69bd ce72 b33c 7200 243d
00000020: c2a3 383d 253e 0b3d 5bb4 8ebd 466e a63d
00000030: bfad 0cbd af87 92bb b551 b2bd befc 79bd
00000040: 588c b33d e53d c9bc 4a95 963d f4ed 96bb
00000050: c4d7 913c 0697 a23c daa6 843c 1061 febc
00000060: b28f 493d 36d8 e0bc f218 49bd 35ff cbbc
00000070: 04f7 193d f056 a8bd e252 d23b 434a 053d
00000080: d377 20bc ac3b 48bd 58e4 9d3d 7829 b5bd
00000090: 54c3 e33b 5b14 4f3d f001 763c a6db b0bd
000000a0: 434a 4a3d e3fa 523d f1c9 aa3d ded1 b53c
000000b0: b8a8 2f3d fd26 d5bc 9649 31bd 5c10 3dbc
000000c0: d23f 51bc ad40 e4bc 385e 9e3d da8a 38bc
000000d0: 6996 c6bc cda7 53bd 0c91 8ebd c01d ae3d
000000e0: 33e7 71bd afa8 7c3d c61d 3f3d 3944 71bd
000000f0: 2adc 5dbd 80a5 1ebc f2f2 e03c 28b9 573d
00000100: f427 4fbd 564b 643d b3e9 b2bc 4c23 cebc
00000110: 42a5 9b3d 5c46 543d 9ef1 573d bce7 bcbb
00000120: 5a09 8fbd 420c b83d 9a64 533d f07a df3c
00000130: 64fe b6bd 1bf0 7d3d edac 443c 2de4 7dbb
00000140: e385 863d 84fd 543d d668 293c 656f 5a3d
0.018869117 -0.035876565 -0.041801963 -0.06288697 0.016418204 -0.057048146 0.02190533 0.040039487
0.045078047 0.033994813 -0.06967994 0.08126502 -0.034345385 -0.004471741 -0.08706991 -0.06103205
0.08767003 -0.024565646 0.073526934 -0.004606003 0.01780308 0.019847404 0.016192842 -0.031052142
0.049209304 -0.027446847 -0.049096055 -0.024901966 0.037589088 -0.08219707 0.006418572 0.032541525
-0.009794193 -0.048885033 0.07709569 -0.088458 0.006950775 0.050556522 0.01501511 -0.086356446
0.049387228 0.051508795 0.083392985 0.022194799 0.042885512 -0.026019568 -0.043283068 -0.011539545
-0.012771564 -0.027862871 0.077328146 -0.011263574 -0.024241643 -0.0516737 -0.06961259 0.08501768
-0.05905838 0.061684307 0.046659254 -0.058902953 -0.054165043 -0.009683013 0.027459595 0.052666813
-0.05057521 0.05573591 -0.021839952 -0.025163315 0.0759988 0.051824912 0.05272066 -0.0057649296
-0.069842055 0.08986713 0.051609613 0.0272803 -0.0893524 0.06199656 0.012004119 -0.003874074
0.065685056 0.051999584 0.010339936 0.05332889

fc2.1.weight f4 [84]
00000000: d6f0 a63f 430f b03f ccfb b33f 80f2 a73f
00000010: d182 aa3f a111 a33f 3fa3 a23f 0cdf a73f
00000020: 5de3 a63f 7c0b ae3f b150 a73f 1cf4 a53f
00000030: f22b ae3f 7093 aa3f 3e71 a93f 9726 ab3f
00000040: c360 ab3f 5591 ab3f f73b 9e3f 9db5 ab3f
00000050: 5c6c 9c3f 65c1 b53f abfc aa3f 31cc ae3f
00000060: e935 a73f e19e ab3f 94b6 ad3f 5018 a73f
00000070: 1e54 a73f bf03 b03f fe10 b13f c6ae a73f
00000080: 0bf4 a63f 4798 b33f 064b ac3f a27b ab3f
00000090: c449 af3f 97b6 a53f c3e6 ad3f 3421 a43f
000000a0: 8413 a73f 4222 b73f aaec a43f f9e0 b13f
000000b0: 3748 a43f 51d8 b13f 5a99 a33f 1346 aa3f
000000c0: 11b8 ad3f ae0c b73f a0a5 ab3f 2380 a23f
000000d0: a15b ba3f da1d af3f 51cc b43f 172a ad3f
000000e0: 46de a43f 12ae a43f e5bc a53f 8d35 ac3f
000000f0: f6c3 b13f a33d b13f 30d0 9c3f ea6c a63f
00000100: 9f68 c13f 6aac a93f 88ec ab3f 5ff2 ae3f
00000110: 914c ba3f 3780 a93f 4c9b ad3f 6bf4 b33f
00000120: 9095 ae3f 0d1d bc3f 4c47 b23f 04a1 b23f
00000130: 2f0c a73f 6c18 ad3f 543f a83f 3131 ae3f
00000140: 2c7f b33f b29c b03f e51a a13f 2bc6 a93f
1.3042247 1.3754658 1.4061217 1.312088 1.3321172 1.2739755 1.2706069 1.3114944
1.3038136 1.3597255 1.30715 1.2965121 1.3607161 1.3326244 1.3237684 1.3371152
1.3388904 1.3403727 1.236205 1.3414799 1.2220569 1.4199644 1.3358358 1.3656064
1.3063327 1.3407861 1.3571343 1.3054295 1.3072546 1.3751143 1.3833311 1.3100212
1.3043226 1.4030846 1.3460395 1.3397105 1.3694386 1.2946347 1.3586048 1.2822633
1.3052831 1.430733 1.2884724 1.3896781 1.2834538 1.389414 1.2781174 1.3302635
1.3571798 1.4300745 1.340992 1.2695354 1.4559213 1.3680985 1.4124852 1.352847
1.2880332 1.2865622 1.2948271 1.3453842 1.3887928 1.3846935 1.2251034 1.3001988
1.5110053 1.3255742 1.3431559 1.3667716 1.4554616 1.3242253 1.3563018 1.4058965
1.3639393 1.4696366 1.3928008 1.3955388 1.3050593 1.3523078 1.3144326 1.3608762
1.4023185 1.379782 1.2586333 1.3263601

fc2.1.bias f4 [84]
00000000: 1245 053e 6e4b 423e 9910 a73e 894b 153e
00000010: d8ba 5f3e 473a 0e3e a766 4f3e db21 323e
00000020: 80a3 443e f605 3d3e 0c21 323e 92c3 2e3e
00000030: 25e0 3c3e 67cb fa3d a4ac 893e fe23 4d3e
00000040: beb2 0f3e acc0 433e d3a2 933d 571b 9c3e
00000050: 6a28 543e ddb9 8c3e b246 0d3e cdfa 723e
00000060: 42cc 5a3e 0be4 543e e155 183e 11a3 733e
00000070: 9f3d 193e 777f 503e 5dae 353e 4b45 2f3e
00000080: 3dc2 3a3e 0a67 3e3e ea9e 3f3e 50d2 453e
00000090: cee6 8b3e 6cfb fe3d edcb 7a3e c1b1 363e
000000a0: 0e41 173e 1c76 4c3e 059a 123e e9ae 703e
000000b0: 0004 ee3d 2c8a 2f3e d853 253e 4c2d 3b3e
000000c0: 54ab 523e 78a7 883e b416 513e d644 283e
000000d0: 80bf 9e3e 0195 913e 9ce3 673e 72d8 593e
000000e0: 4b94 053e 4b6d ea3d 2859 1a3e 872d 6b3e
000000f0: c622 893e 8bc0 283e 57ab 813d af7e 133e
00000100: 9c62 833e 5b51 c73d 72bd 6d3e cc1e 2d3e
00000110: a74c 823e 697d 093e e036 2b3e 2783 413e
00000120: eb94 e73d f9bc 343e 2bf7 933e ecbe 7c3e
00000130: 3466 0d3e 60d6 213e e678 013e d515 fd3d
00000140: 5fa1 733e ce0d 6b3e 3090 133e fa9e 303e
0.1301463 0.18974087 0.3262985 0.14579596 0.21848619 0.13889419 0.20254003 0.17395727
0.19202995 0.18459305 0.17395419 0.17066792 0.1844488 0.12245827 0.26889527 0.20033261
0.14033028 0.19116467 0.07208791 0.3048961 0.20718542 0.27485552 0.137965 0.23728485
0.2136698 0.20790116 0.1487651 0.23792674 0.14964913 0.20361124 0.17742296 0.17116277
0.18238159 0.18593994 0.18712965 0.19318509 0.27324528 0.12450299 0.24491854 0.17841245
0.1477091 0.1996693 0.14316566 0.23504223 0.11621857 0.17142552 0.16145265 0.18278998
0.20573169 0.2669027 0.20418817 0.16432509 0.31005478 0.28433993 0.2264542 0.21273974
0.1304485 0.11446627 0.15073073 0.22966586 0.26784343 0.164797 0.063315086 0.14403795
0.2566117 0.09732314 0.23216799 0.1690628 0.25449106 0.13426746 0.16720152 0.18897687
0.11307701 0.17650212 0.28899512 0.24682206 0.13808519 0.15804434 0.12643775 0.1235768
0.23792027 0.22954485 0.14410472 0.17248145

fc2.1.running_mean f4 [84]
00000000: ba42 e33e be55 093e 0d99 263e 1971 c0be
00000010: 4279 d83e 0fc5 a13e dd9e 3c3e 2174 4bbd
00000020: 4c4d 2ebe 4d9d 24be 4ebc a0bd da85 883d
00000030: 289f 003f 4346 6bbe bacb 3dbf e7cf a23e
00000040: 20ea 383f df87 4e3e b9e6 97be fbe5 2e3d
00000050: 535a 343e 6b27 d1be c757 4cbf b5ed e03e
00000060: af57 33be 9865 44be ba5c d0be a845 623e
00000070: 0670 533f 5a9d 083f 72f2 b83e c6cf f03e
00000080: 6bd2 3c3e 0c92 583d 637c bd3e 337b 933c
00000090: 6bc9 a1be b472 073e 514d a63e 55d2 7e3e
000000a0: aee7 8c3e 9d33 cb3e feb8 913e 0ed7 bb3e
000000b0: 76ea 933f 0a31 44bf 15f3 623f daad 62bf
000000c0: 69fd bfbb 7761 b2be 1e47 e13d 9680 993e
000000d0: 2970 9ebe df2e aebe fd70 323f f054 7c3e
000000e0: 1f96 913d e39d 2cbe 4b9d a43e 311f ff3d
000000f0: 60c7 00bd 8e0c 683f 50dc a93e 61b0 793e
00000100: 089a 64be c5ad 0f3f a94b 973e 17ff ae3d
00000110: d409 643e d5d1 5f3f 85aa 10be 8604 1c3e
00000120: 214a 31be 3d6c 4c3e 4ed4 42bf 57e4 ddbd
00000130: 598a 643f 1a1c 9cbe aefb ef3e 7d87 c7bd
00000140: 189e b4be ef29 203f 9ac7 c5be 3c3f c33c
0.44386846 0.13411614 0.16269322 -0.37586287 0.42280012 0.31595656 0.18419977 -0.049671296
-0.17021674 -0.1607563 -0.07848416 0.06666155 0.50242853 -0.22976021 -0.7413899 0.31799242
0.72232246 0.20169018 -0.29668215 0.042699795 0.17612581 -0.40850386 -0.7982144 0.43931356
-0.17513917 -0.1917938 -0.40695745 0.22096884 0.8259281 0.533651 0.3612247 0.4703352
0.18439643 0.052873656 0.37008962 0.018003082 -0.31598982 0.1322735 0.32480863 0.24884923
0.27520508 0.39687815 0.2846145 0.3668751 1.1555927 -0.7663733 0.88652164 -0.88546526
-0.0058590663 -0.34839985 0.10999893 0.29980916 -0.30944946 -0.34020135 0.69703656 0.24641776
0.071087115 -0.16857104 0.32151255 0.12457121 -0.03144014 0.90644157 0.33175898 0.2438369
-0.22324383 0.56124526 0.29549912 0.08544748 0.22269374 0.87429553 -0.14127548 0.152361
-0.17313434 0.19963165 -0.761052 -0.10834568 0.892736 -0.3049019 0.46871704 -0.09742639
-0.35276866 0.62563986 -0.38628846 0.023833863

fc2.1.running_var f4 [84]
00000000: afcd 193f 9a74 6b3f 0df9 5d3f c317 933e
00000010: 60f7 143f 0b83 5a3f 5e0e 213f 47e9 283f
00000020: 8986 4a3f 51a3 3a3f d7b4 263f 3d0b 573f
00000030: 78e8 4c3f 0da8 4f3f 118a ae3f ad4b 733f
00000040: 8721 ab3f 71f5 f03e 143a 3b3f 523c 463f
00000050: 7050 483f 1c06 8a3f 9521 0e3f ae29 693f
00000060: 352b 863f a70d 143f 09cb 053f e89a 783f
00000070: d4b7 393f 7249 4e3f e7cc 1e3f 9b41 453f
00000080: 3850 383f f9a5 433f c14e 7f3f d4dc 2b3f
00000090: e153 193f 63b3 ad3e f843 4c3f a7a7 2c3f
000000a0: 777f 283f f935 453f b042 2b3f ff06 333f
000000b0: 27c2 773f f197 2e3f 78c6 7a3f b968 343f
000000c0: 6156 4c3f 2ba6 563f dcfe 353f 99be 0a3f
000000d0: 9ae1 163f 62d8 193f 7318 043f 8a36 243f
000000e0: e13f 2c3f b475 713f 5d58 423f 0d2b 353f
000000f0: 1ad3 1c3f 6d68 543f 08a7 1d3f bf38 0d3f
00000100: f237 4c3f 29e0 d13e dcbe 6e3f 3986 333f
00000110: 460e 053f 0fd8 213f c717 643f 6fa2 463f
00000120: b0e6 3d3f 9b0b 513f c04e 203f 438b 533f
00000130: 6acd 703f 946e 0e3f f9af 253f c1a0 123f
00000140: 4b9c 3f3f e5a5 3d3f d417 3f3f 496c 443f
0.60079473 0.91974795 0.86708146 0.28729066 0.58189964 0.85356206 0.6291255 0.6598095
0.79111534 0.7290545 0.6511969 0.84001523 0.8004222 0.811158 1.3635885 0.9503735
1.3369607 0.47062257 0.73135495 0.7743579 0.7824774 1.0783114 0.5551999 0.91079223
1.0481936 0.5783333 0.5226293 0.9711137 0.72546124 0.8058082 0.62031406 0.7705323
0.71997404 0.7642513 0.99729544 0.6713383 0.59893614 0.33925924 0.7979121 0.6744332
0.65819496 0.7703548 0.6689863 0.6993255 0.9678063 0.68200594 0.9795909 0.70472294
0.79819304 0.838473 0.7109201 0.5419708 0.5893799 0.600958 0.51599807 0.6414572
0.6728497 0.94320226 0.7591608 0.70768815 0.61259615 0.8297184 0.61582994 0.5516471
0.79772866 0.40991333 0.9325998 0.7012668 0.51974905 0.63220304 0.8909878 0.77591604
0.74180126 0.81658334 0.6262016 0.8263437 0.94063437 0.5563748 0.6472164 0.5727654
0.7484786 0.7408126 0.74645734 0.7672773
